results/GraphConv_3_h16_e32_att16_tanh.pt (torch, 44594 bytes, 37 tensors)

phi.convs.0.lin_rel.weight f4 [16, 13]
-0.12341561 -0.45835325 0.17764044 -0.15451749 1.0113671 1.2086163 -0.1341747 0.0125442585
0.15223944 0.3366345 0.10127428 0.15462717 -0.1347413 0.2927137 0.0861738 0.25593597
1.0005293 -0.06501363 -0.8696075 0.4747695 0.07153011 0.03804863 0.18773922 0.14958625
0.18777283 -0.13134117 -0.22169426 -0.033521444 -0.29590333 -0.31113973 0.09532518 0.59524643
-0.84622973 -0.11903828 0.24746668 -0.072811686 0.116364814 0.014852325 -0.024966264 0.16624942
-0.7544813 0.08590218 0.4666014 0.050689902 -0.6755569 0.05300592 0.088179015 0.19685349
0.86093825 -0.05100286 -0.2797353 -0.23952386 -0.16832404 -0.6802592 0.49045017 -0.26552615
-0.08041671 -0.63192683 -0.5022976 0.019458998 0.10677559 0.80526894 -0.03063248 0.0457388
0.11109907 -0.11521946 -0.9291698 0.34958827 0.17819475 0.17714524 0.34222534 -0.2303419
0.0043066526 -0.08998751 0.555925 -0.24690373 0.08346258 0.016386598 0.14122559 -0.72913784
0.30346552 0.25403884 0.51117957 0.05362506 -0.055862673 0.114043474 -0.13918902 0.7175817
-0.17592297 -0.06566481 -0.117618084 -0.24852332 0.51180995 0.06626148 0.57015824 -0.31731167
-0.6850623 -0.08672031 0.18594532 -0.11405277 0.004136689 0.24221618 0.19633582 0.01876527
0.2659013 0.46508384 -0.4010641 0.07615834 -0.74666876 -0.40905753 -0.14237803 0.26268873
-0.06896836 -0.7289785 -0.33475503 0.17466988 0.16636637 0.20261633 -0.80256623 0.41346514
-0.07799157 0.40594187 0.32068262 -0.04641092 -0.111845516 -0.027347457 0.68396026 -0.20593816
-0.19789176 -0.2514208 -0.012976752 1.3945976 -0.16711873 0.325161 0.58249664 -0.9247057
0.53119546 -0.04900604 -0.118617415 -0.4024605 -0.024885582 0.040568132 -0.21949162 0.008566351
0.1309693 0.29102907 0.2311918 -0.008675663 -0.6978521 0.34390396 -0.23916958 0.11315477
0.15199882 0.3261296 -0.04400515 0.18789178 0.3004548 -0.4540928 0.2566102 0.25212392
-0.017954785 -0.68725073 0.50668985 -0.14032283 0.09445425 -0.32458678 0.15513898 0.214131
0.2528238 -0.06307824 -0.29125217 0.28855562 -0.9162527 0.017925926 0.6115161 -0.43756968
0.23391141 0.06503549 0.009411878 -0.33540127 0.0023735983 -0.27710694 0.2533239 -0.8001948
0.3589512 0.96969664 -0.26467583 -0.9727118 0.04189891 0.04499496 0.11343731 0.43267334
0.17117846 -0.12842421 0.1878558 0.3706055 -0.7222108 0.5209491 0.2184001 0.15812744
-0.61634064 0.20923112 0.1517144 0.12034422 0.57183623 -0.11135067 0.098650426 0.19130819
00000000: 53c1 fcbd 47ad eabe 60e7 353e d539 1ebe
00000010: 7a74 813f f0b3 9a3f 1865 09be 6f86 4d3c
00000020: a8e4 1b3e 5b5b ac3e e468 cf3d 9656 1e3e
00000030: a0f9 09be 92de 953e e47b b03d 0a0a 833e
00000040: 5811 803f de25 85bd 999e 5ebf fd14 f33e
00000050: 617e 923d e1d8 1b3d b63e 403e 232d 193e
00000060: 8547 403e 4d7e 06be d203 63be c84d 09bd
00000070: a480 97be b54d 9fbe d939 c33d 1262 183f
00000080: 83a2 58bf 57ca f3bd e867 7d3e 4b1e 95bd
00000090: ad50 ee3d 2b57 733c 0d86 ccbc 4a3d 2a3e
000000a0: b025 41bf 7bed af3d 61e6 ee3e 37a0 4f3d
000000b0: 4cf1 2cbf bc1c 593d 3397 b43d f693 493e
000000c0: 7366 5c3f 60e8 50bd 7739 8fbe be45 75be
000000d0: 235d 2cbe 7825 2ebf 491c fb3e 0bf3 87be
000000e0: 84b1 a4bd f5c5 21bf 9396 00bf 7a68 9f3c
000000f0: 29ad da3d 1b26 4e3f f7f0 fabc 9c58 3b3d
00000100: e987 e33d 2ef8 ebbd 12de 6dbf 3cfd b23e
00000110: af78 363e 9065 353e 2938 af3e bfde 6bbe
00000120: d21e 8d3b 5f4b b8bd 1a51 0e3f 55d4 7cbe
00000130: 6eee aa3d 303d 863c 719d 103e c7a8 3abf
00000140: d55f 9b3e 6111 823e aadc 023f f3a5 5b3d
00000150: 42d0 64bd a08f e93d 9187 0ebe 6fb3 373f
00000160: 2725 34be 467b 86bd c0e1 f0bd e67c 7ebe
00000170: fa05 033f 19b4 873d e4f5 113f ad76 a2be
00000180: 3e60 2fbf 6b9a b1bd 7368 3e3e 8094 e9bd
00000190: 108d 873b 8507 783e 420c 493e a0b9 993c
000001a0: 3724 883e 781f ee3e 4658 cdbe e7f8 9b3d
000001b0: af25 3fbf fd6f d1be 8ccb 11be 237f 863e
000001c0: 493f 8dbd 569e 3abf 0365 abbe a9dc 323e
000001d0: f25b 2a3e a87a 4f3e fb74 4dbf b4b1 d33e
000001e0: 0bba 9fbd 9dd7 cf3e 8330 a43e 6019 3ebd
000001f0: 430f e5bd c607 e0bc 0518 2f3f 74e1 52be
00000200: 23a4 4abe 3aba 80be 719c 54bc 2d82 b23f
00000210: 2c21 2bbe 817b a63e 801e 153f 83b9 6cbf
00000220: 6dfc 073f 8fba 48bd b0ed f2bd 4d0f cebe
00000230: d9dc cbbc c52a 263d 69c2 60be e159 0c3c
00000240: d11c 063e c301 953e 8bbd 6c3e 5e24 0ebc
00000250: 6fa6 32bf 2e14 b03e dfe8 74be b0bd e73d
00000260: 94a5 1b3e 75fa a63e bf3e 34bd b466 403e
00000270: 36d5 993e da7e e8be 6a62 833e 6316 813e
00000280: ea15 93bc aaef 2fbf 6db6 013f cab0 0fbe
00000290: 3b71 c13d 3d30 a6be c1dc 1e3e 2845 5b3e
000002a0: 1f72 813e 2a2f 81bd 011f 95be 90bd 933e
000002b0: 898f 6abf 64d9 923c 528c 1c3f 2209 e0be
000002c0: 7986 6f3e 5431 853d 4734 1a3c b7b9 abbe
000002d0: 5f8e 1b3b f6e0 8dbe acb3 813e 91d9 4cbf
000002e0: 74c8 b73e 0a3e 783f 9783 87be a403 79bf
000002f0: 319e 2b3d a34c 383d d251 e83d 5c87 dd3e
00000300: 6849 2f3e a381 03be 455d 403e 01c0 bd3e
00000310: cfe2 38bf ec5c 053f 47a4 5f3e 29ec 213e
00000320: 80c8 1dbf af40 563e 055b 1b3e 0877 f63d
00000330: dc63 123f d20b e4bd 3c09 ca3d 4be6 433e

phi.convs.0.lin_rel.bias f4 [16]
-0.23296931 -0.01836163 -0.13925402 0.16675295 -0.12754588 0.05722755 0.20517091 -0.21767184
-0.24450019 -0.1020201 0.22684687 0.2253133 -0.16421351 0.07131036 0.01604738 -0.14373355
00000000: 828f 6ebe 216b 96bc 9b98 0ebe 49c1 2a3e
00000010: 639b 02be 6f67 6a3d 5318 523e 5ee5 5ebe
00000020: 425e 7abe eaef d0bd 8c4a 683e 88b8 663e
00000030: 9627 28be 2b0b 923d cc75 833c e32e 13be

phi.convs.0.lin_root.weight f4 [16, 13]
0.114210375 -0.6789087 0.106462315 -0.023979703 0.73194087 1.0984364 -0.5602677 -0.15321109
0.19540693 0.44945154 0.08862255 -0.12579255 0.08580863 0.1786541 0.53942966 -0.0454936
0.9406108 -0.5077568 0.07883153 0.26658738 0.12990321 -0.25661135 0.12165135 -0.1562604
-0.10613076 0.16396011 -0.3301255 -0.018835008 0.21571164 -0.37043148 -0.019664668 0.3913292
-0.5783903 -0.23181361 -0.07088076 0.06264122 0.1029969 0.09811953 0.07548791 0.047529604
-0.38833869 -0.014124075 0.67730165 -0.045533627 0.57096773 -0.3367272 -0.23814772 -0.18521194
-0.10762565 0.070314154 -0.025403697 -0.26746187 0.07193404 -0.5577639 0.03180885 -0.44651467
0.008690554 0.00494546 -0.44398546 -0.032299154 -0.2768775 -0.18855968 0.12253885 -0.02886342
-0.13776381 -0.0704026 -1.0319493 0.48401797 0.21264255 -0.055695333 0.046109393 -0.07246598
0.014361204 0.022944517 0.27297926 -0.19457327 0.092798695 0.2515445 -0.131488 -0.7787964
0.051028464 0.11403545 0.34791413 0.2203904 0.05112776 0.0050654267 -0.09814591 0.21008469
0.18618494 -0.16930114 0.18563253 0.0142610315 0.4269468 0.49629042 0.11372869 0.26072723
-1.0012434 -0.01800648 0.23256686 0.109152846 -0.21076402 0.07527606 -0.11206075 0.19252437
0.04471625 0.8820712 -0.1997914 0.0063215564 -0.9281041 -0.15973184 0.21009646 0.10212103
-0.19095996 -0.9315498 -0.18738113 0.120768175 0.057483844 0.22463527 -1.0087733 0.40340126
0.06364374 0.2488231 0.4432496 -0.13798903 0.2786616 -0.12902515 0.13315661 -0.3250168
0.21919236 0.13772623 -0.26302612 0.6136746 0.41743863 -0.02351174 0.5194949 -0.70026296
0.55805475 0.34691834 0.34053767 0.26374456 0.4694143 0.14174566 0.0996228 -0.10155196
0.4827883 -0.25604525 0.76948947 -0.2089004 -0.32381073 -0.011684916 -0.22662842 0.14303102
-0.50633943 0.57074785 -0.06374689 -0.011038644 0.0038170312 0.37320504 -0.046599004 0.8023619
-0.011364102 -0.07325583 -0.24239922 -0.13840587 -0.23870337 -0.31676587 -0.20033579 0.2759635
-0.1578189 0.054873608 -0.41105375 0.015759686 -0.6612176 0.22242053 0.7262948 -0.8046163
0.09578822 -0.09721804 -0.0024572962 -0.27404705 -0.03943162 0.20387062 -0.10109907 -0.85076374
0.75306255 0.6562515 -0.69013363 0.13255 -0.42852458 -0.12274204 -0.16308661 -0.07026743
0.03545004 0.3712049 0.12647097 0.038252693 -0.6382074 0.7824356 0.35430384 -0.4675423
-0.3340965 -0.16449901 0.014844052 -0.34557617 -0.07759462 0.013333349 -0.25436723 0.17465027
00000000: 21e7 e93d f6cc 2dbf ea08 da3d 1571 c4bc
00000010: 7a60 3b3f 9099 8c3f b46d 0fbf 5ee3 1cbe
00000020: c118 483e 831e e63e bd7f b53d c3cf 00be
00000030: 6fbc af3d 1af1 363e 1018 0a3f 7f57 3abd
00000040: dfcb 703f 5afc 01bf 6d72 a13d 247e 883e
00000050: 5905 053e 9062 83be 5824 f93d ba02 20be
00000060: 155b d9bd 29e5 273e 3606 a9be e04b 9abc
00000070: 83e3 5c3e 32a9 bdbe cc17 a1bc 4d5c c83e
00000080: 6311 14bf 8c60 6dbe ef29 91bd 0a4a 803d
00000090: 0af0 d23d e4f2 c83d 6899 9a3d 67ae 423d
000000a0: 54d4 c6be aa68 67bc a463 2d3f 7881 3abd
000000b0: f12a 123f 8267 acbe ffdc 73be 33a8 3dbe
000000c0: d66a dcbd de00 903d 6a1b d0bc c3f0 88be
000000d0: 2752 933d 9dc9 0ebf ff49 023d 929d e4be
000000e0: d362 0e3c 860d a23b 1052 e3be 1e4c 04bd
000000f0: e3c2 8dbe ca15 41be a6f5 fa3d fb72 ecbc
00000100: f511 0dbe 3d2f 90bd ea16 84bf 34d1 f73e
00000110: f8be 593e ca20 64bd 34dd 3c3d 0b69 94bd
00000120: 414b 6b3c 24f6 bb3c f0c3 8b3e 373e 47be
00000130: 3e0d be3d 71ca 803e caa4 06be 335f 47bf
00000140: 3903 513d 6b8b e93d cd21 b23e 05ae 613e
00000150: 586b 513d e1fb a53b b900 c9bd 7120 573e
00000160: 44a7 3e3e 475d 2dbe 7416 3e3e 1aa7 693c
00000170: c598 da3e c719 fe3e 96ea e83d 0a7e 853e
00000180: be28 80bf 5382 93bc 0226 6e3e 878b df3d
00000190: 86d2 57be 562a 9a3d 1b80 e5bd 1c25 453e
000001a0: 6328 373d 6bcf 613f 1e96 4cbe 0f25 cf3b
000001b0: 3b98 6dbf be90 23be 8723 573e d524 d13d
000001c0: 028b 43be 0c7a 6ebf d7e0 3fbe 4e55 f73d
000001d0: 2e74 6b3d ca06 663e 7c1f 81bf 9c8a ce3e
000001e0: a657 823d 7ccb 7e3e 9df1 e23e ff4c 0dbe
000001f0: bcac 8e3e 2b1f 04be 355a 083e 9a68 a6be
00000200: f673 603e 1b08 0d3e 5cab 86be c719 1d3f
00000210: 84ba d53e b19b c0bc 9efd 043f 6f44 33bf
00000220: addc 0e3f 489f b13e f45a ae3e 8709 873e
00000230: 1257 f03e c625 113e 0a07 cc3d 79fa cfbd
00000240: 0730 f73e 5d18 83be 43fd 443f fde9 55be
00000250: 85ca a5be 1772 3fbc 4811 68be b976 123e
00000260: 769f 01bf 881c 123f bb8d 82bd 6edb 34bc
00000270: 2827 7a3b bb14 bf3e 99de 3ebd 9767 4d3f
00000280: 8030 3abc 2707 96bd 8037 78be 45ba 0dbe
00000290: a86e 74be 232f a2be d324 4dbe 164b 8d3e
000002a0: 479b 21be 26c3 603d a375 d2be 751a 813c
000002b0: 8e45 29bf 35c2 633e 75ee 393f 55fb 4dbf
000002c0: 9d2c c43d 401a c7bd 970a 21bb e54f 8cbe
000002d0: 0d83 21bd 76c3 503e 070d cfbd a7cb 59bf
000002e0: b5c8 403f 1900 283f 99ac 30bf 30bb 073e
000002f0: 9367 dbbe 2e60 fbbd 2d00 27be 5fe8 8fbd
00000300: 1034 113d 920e be3e 9b81 013e dbae 1c3d
00000310: 8f61 23bf b34d 483f 5067 b53e b461 efbe
00000320: b20e abbe 6e72 28be 7734 733c 5cef b0be
00000330: eee9 9ebd 1e74 5a3c 6c3c 82be 85d7 323e

phi.convs.1.lin_rel.weight f4 [16, 16]
-0.098203056 0.102343775 -0.21685757 -0.21296395 -0.27680817 -0.11209631 0.10610703 -0.12589344
-0.21083163 0.17870697 0.2551109 -0.013066483 -0.18513954 -0.06616021 -0.030292712 0.1608989
-0.055862036 -0.069064304 -0.12182131 -0.078165665 0.13271965 0.16101953 0.036308855 -0.05449528
0.3013354 0.049321115 -0.095321745 -0.07446192 0.011822073 0.19414423 0.16132198 0.21499291
-0.03353138 0.29316705 -0.06428611 -0.0053890967 -0.032660425 -0.23445651 -0.16405815 -0.24466883
0.1563922 0.0023560468 -0.28960204 -0.13413706 0.42666504 -0.13991961 0.16054127 0.22583212
-0.23265389 -0.07901395 -0.037529252 0.052904837 -0.04621224 0.18110394 -0.19612107 -0.1605787
0.018091101 -0.023657963 0.3151644 0.0086469175 -0.15749523 0.025072888 0.14611742 -0.038263272
-0.109964415 -0.0072710877 -0.06124423 0.16991705 0.1252601 0.052606493 0.15156439 0.16287069
-0.12326082 0.20758557 0.48179132 -0.15166353 0.19125909 0.11711926 -0.0023735492 -0.1472735
-0.09046379 -0.30324468 -0.00034220633 -0.29920375 -0.27833787 0.23166692 -0.09254691 0.032742016
-0.34228438 -0.010566361 0.064096175 0.11459391 -0.04216598 -0.29826316 0.15823255 0.12854731
0.034567736 -0.14337496 0.098480634 -0.061145723 0.047591172 0.037035227 0.019275859 0.07728553
0.16893539 -0.0030874591 0.46328133 0.14203751 -0.28699598 -0.10637259 -0.26087916 -0.22678602
0.008166629 0.016096324 -0.06736715 0.20353822 -0.16525261 -0.10472369 -0.040023446 -0.057022214
-0.06624532 0.22500172 -0.17696884 -0.14642449 -0.05538962 0.13568953 -0.008683632 0.09011287
-0.001430666 0.17167653 0.16355269 0.2702377 -0.05710416 -0.2068784 -0.11854333 0.032903813
0.15319605 -0.097628355 0.33830732 -0.010754937 -0.010766654 0.023481693 -0.054527704 0.17907397
0.017260712 -0.14436516 -0.2610953 -0.5493806 -0.2790203 0.19952944 0.11897409 0.07055089
-0.36135563 0.0046982653 -0.2816412 -0.17344391 -0.0912007 -0.31524277 0.26039264 -0.11017671
0.07241502 0.15290073 -0.17225467 0.16121452 0.066305876 0.12948883 0.24183819 -0.13915111
-0.14535533 0.19854182 0.2356008 -0.06949855 0.26528275 -0.13514982 0.01031786 0.18463312
0.112739295 -0.25516024 0.026682593 -0.27044392 -0.2842124 0.1607011 -0.06660214 -0.12979607
-0.020380558 0.061068714 -0.3567 -0.17106159 -0.4174638 0.0581351 -0.2434308 -0.00018731953
-0.016641017 -0.2143461 -0.023696186 -0.30584097 -0.1629852 -0.0077898167 -0.2136333 -0.11254535
0.23939036 0.023512587 0.19926377 -0.0003708484 0.11072276 -0.18833044 -0.10232194 -0.18172784
-0.03127504 -0.037660234 -0.18721463 0.18296507 -0.16227475 0.23331344 -0.1720404 -0.068229705
0.034033384 -0.11107162 0.5567983 -0.20162827 0.07496407 -0.17598177 0.05795639 0.19551073
0.18523635 -0.14171924 -0.2104588 0.123486914 -0.18689924 0.16909239 -0.1298025 -0.16439754
-0.35979128 0.229936 -0.10157222 -0.19158188 -0.1782282 -0.21077713 -0.06823535 0.010947314
-0.15210801 0.042841665 -0.15920255 -0.048703454 -0.18172662 0.039824903 0.24828431 0.22692414
0.044926416 0.18390551 0.41787687 0.031291254 0.073584564 -0.018751012 0.21965122 0.18611673
00000000: af1e c9bd 9d99 d13d e90f 5ebe 3913 5abe
00000010: cdb9 8dbe c092 e5bd a44e d93d 36ea 00be
00000020: 3fe4 57be f6fe 363e e59d 823e cd14 56bc
00000030: 3895 3dbe 017f 87bd 6c28 f8bc aec2 243e
00000040: 97cf 64bd 9671 8dbd 737d f9bd 5215 a0bd
00000050: a9e7 073e 4ee2 243e 98b8 143d 7136 5fbd
00000060: a248 9a3e f004 4a3d 0c38 c3bd 7e7f 98bd
00000070: 5eb1 413c bfcd 463e 9731 253e 1a27 5c3e
00000080: 3358 09bd fe19 963e 70a8 83bd 0597 b0bb
00000090: f0c6 05bd 5e15 70be dcfe 27be 778a 7abe
000000a0: 4725 203e e867 1a3b b846 94be 3a5b 09be
000000b0: d773 da3e 1647 0fbe ee64 243e 8940 673e
000000c0: d23c 6ebe 11d2 a1bd 46b8 19bd beb2 583d
000000d0: 0c49 3dbd 5073 393e f6d3 48be be6e 24be
000000e0: ca33 943c 58ce c1bc 3a5d a13e cdab 0d3c
000000f0: 6e46 21be a865 cd3c ce9f 153e f3b9 1cbd
00000100: 0635 e1bd 4e42 eebb 3bdb 7abd bcfe 2d3e
00000110: 2f44 003e e879 573d b233 1b3e 93c7 263e
00000120: 2b70 fcbd 5091 543e 5aad f63e af4d 1bbe
00000130: 6cd9 433e 39dc ef3d 8c8d 1bbb ddce 16be
00000140: 1445 b9bd e342 9bbe 286a b3b9 3c31 99be
00000150: 4d82 8ebe 183a 6d3e 3c89 bdbd 7e1c 063d
00000160: e63f afbe 881e 2dbc db44 833d 36b0 ea3d
00000170: 3cb6 2cbd f3b5 98be b707 223e e8a1 033e
00000180: e696 0d3d e3d0 12be 37b0 c93d f073 7abd
00000190: f6ee 423d 40b2 173d 68e8 9d3c e047 9e3d
000001a0: 66fd 2c3e f856 4abb 3633 ed3e 4872 113e
000001b0: 23f1 92be dfd9 d9bd f491 85be 983a 68be
000001c0: 53cd 053c 70dc 833c caf7 89bd 536c 503e
000001d0: fb37 29be 6079 d6bd a0ef 23bd 2090 69bd
000001e0: a0ab 87bd da66 663e 5237 35be 4df0 15be
000001f0: 3ae0 62bd 32f2 0a3e cb45 0ebc 198d b83d
00000200: 2f85 bbba f9cb 2f3e 5b7a 273e 995c 8a3e
00000210: 0de6 69bd eed7 53be d8c6 f2bd 26c6 063d
00000220: 6ddf 1c3e 60f1 c7bd 9e36 ad3e 7a35 30bc
00000230: 9f66 30bc ae5c c03c 7158 5fbd 2b5f 373e
00000240: 5666 8d3c 76d4 13be 48ae 85be 35a4 0cbf
00000250: c0db 8ebe 7251 4c3e b0a8 f33d fc7c 903d
00000260: 9b03 b9be e8f3 993b 4633 90be 489b 31be
00000270: 6fc7 babd 8067 a1be 2f52 853e 54a4 e1bd
00000280: 534e 943d 0292 1c3e 8763 30be 6b15 253e
00000290: 60cb 873d b898 043e 6ea4 773e a17d 0ebe
000002a0: 07d8 14be 8c4e 4b3e 5641 713e 4155 8ebd
000002b0: 24d3 873e b764 0abe 3e0c 293c 7710 3d3e
000002c0: dce3 e63d 5da4 82be 7495 da3c a077 8abe
000002d0: 4a84 91be d48e 243e b466 88bd 43e9 04be
000002e0: 21f5 a6bc 3023 7a3d 62a1 b6be c52a 2fbe
000002f0: d1bd d5be 121f 6e3d ec45 79be 346b 44b9
00000300: be52 88bc 8b7d 5bbe 811e c2bc 3097 9cbe
00000310: 98e5 26be b841 ffbb b0c2 5abe 2d7e e6bd
00000320: bf22 753e 789d c03c cd0b 4c3e 6e6e c2b9
00000330: 9dc2 e23d b2d9 40be 2a8e d1bd dd16 3abe
00000340: 421a 00bd 9e41 1abd 31b5 3fbe 325b 3b3e
00000350: 5a2b 26be b8e9 6e3e 5c2b 30be 04bc 8bbd
00000360: 9766 0b3d 8479 e3bd 558a 0e3f a477 4ebe
00000370: c386 993d 9134 34be ae63 6d3d f733 483e
00000380: 99ae 3d3e d91e 11be 8382 57be b5e6 fc3d
00000390: 8462 3fbe 8e26 2d3e f2ea 04be d457 28be
000003a0: 9036 b8be 5874 6b3e 1905 d0bd 0a2e 44be
000003b0: 7481 36be f6d5 57be fabe 8bbd 5d5c 333c
000003c0: 34c2 1bbe be7a 2f3d fe05 23be 467d 47bd
000003d0: 8b16 3abe 701f 233d 3e3e 7e3e cd5e 683e
000003e0: c304 383d ba51 3c3e f5f3 d53e 422b 003d
000003f0: 81b3 963d b99b 99bc 40ec 603e 6295 3e3e

phi.convs.1.lin_rel.bias f4 [16]
-0.07658464 -0.048050184 -0.18586484 0.19536172 -0.22331677 0.11958281 -0.054321397 0.07448793
-0.04325108 -0.07525018 0.10159739 0.19139867 -0.20773536 0.13199311 0.22457445 0.087152414
00000000: 68d8 9cbd 45d0 44bd 5a53 3ebe e70c 483e
00000010: 27ad 64be d5e7 f43d 1d80 5ebd 218d 983d
00000020: 0b28 31bd c41c 9abd 4b12 d03d 03fe 433e
00000030: 94b8 54be 3429 073e d8f6 653e f77c b23d

phi.convs.1.lin_root.weight f4 [16, 16]
0.0110158445 0.062227793 -0.08839383 -0.12077181 0.12920384 0.11124426 0.09894857 -0.19907269
0.2255007 -0.10437396 0.22910199 0.15375341 0.08481786 0.28467596 0.18231127 0.16627285
-0.10888646 0.096795276 0.05451211 0.09313964 -0.08063452 0.18100336 0.22168005 -0.1769634
0.20859718 -0.16517055 -0.055533916 -0.27162814 -0.0014199954 -0.1800852 -0.1190518 -0.16716123
-0.032648146 -0.18058728 -0.15140167 0.18754604 0.14649108 -0.112858355 0.089540005 -0.27804342
-0.11017636 -0.035528272 -0.43471703 0.19759516 -0.05494867 -0.15755741 0.023872456 -0.23454015
0.23806882 -0.054696884 -0.16015813 -0.40942794 -0.17400126 -0.09634966 -0.22237372 0.2294545
-0.07025383 0.24446219 0.35943595 0.31099382 0.14531852 -0.030706588 0.19311912 0.2452719
-0.14810266 -0.12916785 -0.19987062 -0.2107946 -0.13308458 0.21688366 0.03951335 0.1038083
-0.10402468 -0.19608724 0.31195498 -0.13795364 -0.2889664 0.23534547 -0.16758269 -0.11085898
0.22580469 0.2168683 -0.14469987 -0.17023993 0.05082975 -0.22195467 0.046688855 0.11420273
-0.005866759 0.23960477 -0.3122804 0.18414944 0.044055235 -0.2297094 0.27027935 -0.022156985
0.021224102 0.22362258 -0.18207999 -0.26745003 0.0124215605 0.21788597 -0.026442036 0.27490377
0.07478878 0.07129976 0.09063874 0.28117347 0.042009003 -0.113860875 0.054084968 -0.28463405
0.022029914 -0.10772681 -0.043086518 0.11079737 0.12914982 0.057327747 -0.19339275 -0.22944447
0.00942635 -0.043284863 -0.33207658 0.22727917 0.024603268 -0.19048138 0.086166754 0.09327375
-0.22665179 0.04493536 -0.19044234 0.21892886 0.21099986 0.16498089 0.12337449 -0.14100239
-0.018213663 0.08721551 0.2197096 -0.13441171 -0.038011074 -0.15540032 -0.22291033 -0.35134476
-0.19258653 -0.30186334 0.24751937 -0.13742247 -0.38680428 -0.12774038 0.058370978 -0.005309349
-0.023718318 -0.09383097 -0.02473554 0.061427794 0.092673846 0.032260254 0.1981565 0.24522223
-0.051910043 -0.20079108 -0.09173727 -0.31125253 0.16787954 -0.030150667 -0.0800432 -0.15091546
0.015602762 0.139492 0.66412616 -0.13029297 -0.039236378 -0.123348564 -0.42793095 -0.23574941
0.19444706 -0.22009152 0.17653407 0.021918794 -0.016967798 0.16459203 0.12230626 0.17422979
0.13640049 -0.106043965 -0.12196232 -0.0068743047 0.017424077 0.23230201 0.22715339 -0.05450543
0.015504454 -0.12173367 0.2800414 -0.20848477 -0.07931769 0.20634589 0.060729355 -0.012048916
-0.014311319 -0.17186666 0.34800106 -0.32068285 0.19075188 0.27233812 0.056950394 0.024591647
0.16136584 0.1405007 0.2597226 0.31038436 -0.0718983 0.154228 0.1260306 -0.25287634
0.123255506 -0.12980115 0.018704452 -0.065823406 0.077914745 -0.029685397 -0.17952447 0.12370684
0.25423786 -0.19826406 -0.20820338 -0.2524833 -0.4291987 -0.20291847 -0.083254635 0.16359076
-0.23894724 -0.03988287 -0.1939889 -0.22094132 -0.16855979 -0.039529312 -0.11249403 0.17751673
0.071707144 0.22762792 0.096876696 -0.020557866 0.3128796 -0.15943554 0.12733153 0.11952385
-0.14112237 -0.008576907 -0.09409378 -0.25941697 0.03442952 -0.004161606 -0.1294821 0.06336038
00000000: cd7b 343c 92e2 7e3d d307 b5bd 3657 f7bd
00000010: 034e 043e 08d4 e33d 8ca5 ca3d b6d9 4bbe
00000020: a8e9 663e 04c2 d5bd b699 6a3e 8971 1d3e
00000030: fcb4 ad3d 0cc1 913e ceaf 3a3e 6e43 2a3e
00000040: ddff debd 9a3c c63d 1748 5f3d ffbf be3d
00000050: b623 a5bd f258 393e 1800 633e e535 35be
00000060: 809a 553e 7822 29be 8877 63bd d812 8bbe
00000070: 241f baba 4168 38be 6ed1 f3bd 502c 2bbe
00000080: 10ba 05bd dfeb 38be 0a09 1bbe 120c 403e
00000090: c201 163e 4822 e7bd c060 b73d b55b 8ebe
000000a0: 25a4 e1bd 1886 11bd 3b93 debe 6356 4a3e
000000b0: db11 61bd bb56 21be 2b90 c33c 4b2b 70be
000000c0: 50c8 733e d709 60bd 7e00 24be 8aa0 d1be
000000d0: 632d 32be f852 c5bd f0b5 63be 1ff6 6a3e
000000e0: 3de1 8fbd 4c54 7a3e fd07 b83e 953a 9f3e
000000f0: 61ce 143e 628c fbbc 05c1 453e 8f28 7b3e
00000100: 39a8 17be 9444 04be e2aa 4cbe 8ada 57be
00000110: 5347 08be c016 5e3e c0d8 213d 7299 d43d
00000120: e40a d5bd 18cb 48be 90b8 9f3e b843 0dbe
00000130: 67f3 93be 67fe 703e cc9a 2bbe 080a e3bd
00000140: 5839 673e b912 5e3e 342c 14be 6053 2ebe
00000150: db32 503d 1648 63be d03c 3f3d 1fe3 e93d
00000160: f13d c0bb f45a 753e 37e3 9fbe ac91 3c3e
00000170: 4373 343d f138 6bbe 0e62 8a3e 9182 b5bc
00000180: 2bde ad3c 51fd 643e 2d73 3abe 36ef 88be
00000190: cd83 4b3c 801d 5f3e f89c d8bc 30c0 8c3e
000001a0: dc2a 993d 9c05 923d cea0 b93d f8f5 8f3e
000001b0: a211 2c3d e42f e9bd 3388 5d3d 8ebb 91be
000001c0: 1478 b43c e09f dcbd 7d7b 30bd bbe9 e23d
000001d0: da3f 043e 80d0 6a3d c008 46be 7ef3 6abe
000001e0: fa70 1a3c 784b 31bd f105 aabe dfbb 683e
000001f0: cb8c c93c 8d0d 43be 3278 b03d 4f06 bf3d
00000200: 6817 68be 240e 383d 5103 43be e32e 603e
00000210: 5910 583e c0f0 283e c4ab fc3d ee62 10be
00000220: d234 95bc 0c9e b23d 8efb 603e 39a3 09be
00000230: 80b1 1bbd 4321 1fbe 9b42 64be 76e3 b3be
00000240: 6735 45be d58d 9abe b875 7d3e 7ab8 0cbe
00000250: 360b c6be 60ce 02be 6816 6f3d 0cfa adbb
00000260: eb4c c2bc 742a c0bd 30a2 cabc b69b 7b3d
00000270: c9cb bd3d 5423 043d 8ae9 4a3e 891b 7b3e
00000280: a09f 54bd 2d9c 4dbe c0e0 bbbd 7e5c 9fbe
00000290: 9de8 2b3e 88fe f6bc b0ed a3bd 9589 1abe
000002a0: baa2 7f3c fed6 0e3e 2c04 2a3f 856b 05be
000002b0: 53b6 20bd 2c9e fcbd c419 dbbe 4b68 71be
000002c0: 211d 473e ac5f 61be 59c5 343e 0b8f b33c
000002d0: 0d00 8bbc d08a 283e b47b fa3d 4b69 323e
000002e0: 92ac 0b3e 942d d9bd 61c7 f9bd d941 e1bb
000002f0: f0bc 8e3c 94e0 6d3e e69a 683e 1641 5fbd
00000300: 6506 7e3c 814f f9bd 9661 8f3e 087d 55be
00000310: 5071 a2bd 564c 533e 58bf 783d d168 45bc
00000320: 067a 6abc d0fd 2fbe 322d b23e 8b30 a4be
00000330: 7654 433e e76f 8b3e d144 693d 6c74 c93c
00000340: 163d 253e 6adf 0f3e 5cfa 843e b3ea 9e3e
00000350: 6a3f 93bd f2ed 1d3e 2a0e 013e 0279 81be
00000360: 626d fc3d 98ea 04be 143a 993c 6cce 86bd
00000370: c491 9f3d ca2e f3bc 43d5 37be 035a fd3d
00000380: 772b 823e bc05 4bbe 4433 55be 7e45 81be
00000390: efbf dbbe dcc9 4fbe 6881 aabd 5684 273e
000003a0: 96ae 74be 385c 23bd 07a5 46be 713e 62be
000003b0: f09a 2cbe 7de9 21bd 4563 e6bd f2c6 353e
000003c0: 32db 923d 4b17 693e 4a67 c63d f868 a8bc
000003d0: c131 a03e 1243 23be 3263 023e ecc8 f43d
000003e0: 6282 10be 2886 0cbc 3db4 c0bd 4dd2 84be
000003f0: f805 0d3d 155e 88bb f596 04be 16c3 813d

phi.convs.2.lin_rel.weight f4 [16, 16]
-0.30949607 -0.3047815 0.18061486 0.2113568 0.41549426 0.03687859 -0.24072923 -0.15009534
-0.13683134 -0.024084365 0.18536934 0.18954338 0.23717213 -0.12451924 -0.044433467 0.22943307
-0.3241308 0.31261566 0.3173465 0.15904203 -0.24421665 -0.19406125 -0.22059722 0.09401177
-0.22198795 -0.22656387 0.06930615 0.20210613 -0.49619043 -0.19103487 -0.3282144 -0.2518349
0.12304533 -0.14975578 -0.1291151 -0.14878239 0.06640874 0.15142599 0.22049055 0.16270395
0.18189278 0.30794242 -0.1434643 -0.28166896 -0.14088888 0.10098288 0.20223528 -0.2156576
-0.27936676 0.2843012 -0.40149567 -0.16910619 -0.23014656 -0.1892621 0.056719523 0.042488474
0.10832519 0.16322845 -0.3233353 0.23939158 -0.16475591 -0.19868694 0.005026981 -0.19305602
-0.3485364 0.12762578 -0.17173259 0.113624044 -0.3617774 -0.13809854 0.37004688 -0.010230656
-0.082640834 -0.540128 0.21300668 -0.28004298 -0.6759317 0.15338387 -0.20123574 0.14473452
0.10160813 -0.13888218 0.07527722 0.23419572 0.41009334 0.087457575 -0.16565655 -0.11632043
-0.19119515 0.24088411 0.11163028 -0.022614418 0.38757288 0.07041789 0.0856919 -0.11892568
-0.28461188 -0.033901066 -0.14477776 0.13005297 -0.022241779 0.16872086 0.20645262 -0.040123504
-0.095656715 -0.5337471 0.12640749 -0.036966164 -0.49442002 0.08972767 -0.18324873 0.2725513
-0.09714494 -0.068721354 -0.0003870937 0.0882475 0.34078473 0.16010827 -0.35827416 -0.26667476
-0.10988664 0.004145874 0.10137345 -0.1517625 -0.49252737 0.14820202 0.1448194 0.11291777
-0.21510202 -0.1670463 -0.03948393 0.3344714 0.6448485 0.027033161 0.039296582 0.102573186
-0.024637625 -0.08252429 -0.07951359 -0.40281397 -0.010782163 -0.14910331 -0.0070401262 0.057682764
-0.2802087 0.3092474 0.2703428 -0.20752518 -0.5607563 0.122550696 -0.043638293 -0.06603278
-0.15841247 -0.2993647 -0.40509704 0.2187617 -0.547479 -0.18105803 -0.25593653 0.016763683
0.10023456 0.14695692 0.12000932 0.14508049 -0.10858539 -0.072013654 0.07707457 0.007379452
-0.004794831 -0.25979638 -0.30712312 0.321972 -0.13527842 -0.25318003 -0.19006017 -0.0921367
-0.12955855 -0.33157805 0.30588984 0.17960134 0.08940483 0.1433963 -0.5740971 0.11548409
-0.26456392 0.056241274 -0.13902137 0.11820139 0.19085763 -0.092433125 0.1903011 0.19631541
0.006351534 -0.121996656 -0.3349444 -0.0063394844 0.06733066 0.16889843 -0.22494087 0.20002344
0.10835211 0.18116945 0.1454479 0.020019814 -0.26092917 -0.26156127 0.2522373 0.1947883
-0.31706846 -0.001631169 0.054549422 -0.103955954 0.1907391 0.16334008 0.15721126 0.12940057
0.00018400759 -0.42865562 -0.22033587 -0.09649664 -0.52437836 -0.029170692 -0.042696394 -0.1318462
-0.007030726 0.06635418 0.39526764 0.16704233 0.15921284 -0.15215781 0.4220911 -0.26502457
-0.030639388 -0.19231199 -0.21205036 0.1088525 0.16999507 -0.15271987 -0.265716 -0.05433416
0.0123489555 0.06532861 -0.30980906 0.17333315 -0.48694304 0.11710419 -0.1377116 -0.23070636
0.12856342 -0.17155941 0.05532955 -0.45176846 -0.27604803 0.15785824 -0.057504363 0.15889244
00000000: 4576 9ebe 520c 9cbe 1af3 383e eb6d 583e
00000010: aabb d43e 010e 173d b981 76be 98b2 19be
00000020: 841d 0cbe 934c c5bc 76d1 3d3e a917 423e
00000030: 40dd 723e f103 ffbd deff 35bd 81f0 6a3e
00000040: 79f4 a5be 290f a03e 3e7b a23e eadb 223e
00000050: ee13 7abe feb7 46be 3de4 61be 3e89 c03d
00000060: cf50 63be 5c00 68be 62f0 8d3d e9f4 4e3e
00000070: ac0c febe a59e 43be b80b a8be 81f0 80be
00000080: 31ff fb3d 9459 19be c036 04be 695a 18be
00000090: 4e01 883d 6a0f 1b3e 46c8 613e dd9b 263e
000000a0: 1a42 3a3e a1aa 9d3e 4ee8 12be ea36 90be
000000b0: 2d45 10be 1dd0 ce3d c416 4f3e 59d5 5cbe
000000c0: 2909 8fbe ed8f 913e d790 cdbe 2c2a 2dbe
000000d0: 8aab 6bbe edcd 41be bb52 683d 6508 2e3d
000000e0: 99d9 dd3d 5c25 273e 348c a5be 1123 753e
000000f0: c6b5 28be 9774 4bbe 5fb9 a43b 7ab0 45be
00000100: 5d73 b2be 55b0 023e abda 2fbe b9b3 e83d
00000110: e33a b9be b469 0dbe c976 bd3e 7b9e 27bc
00000120: 993f a9bd d445 0abf 6c1e 5a3e cb61 8fbe
00000130: dc09 2dbf a910 1d3e be10 4ebe 4935 143e
00000140: ec17 d03d 2137 0ebe f12a 9a3d 01d1 6f3e
00000150: c1f7 d13e f51c b33d dfa1 29be 6839 eebd
00000160: a9c8 43be 53aa 763e 6b9e e43d df41 b9bc
00000170: f46f c63e 4137 903d 3c7f af3d 4f8f f3bd
00000180: a6b8 91be d8db 0abd 9f40 14be 9b2c 053e
00000190: 6434 b6bc 29c5 2c3e 5168 533e 8b58 24bd
000001a0: abe7 c3bd a6a3 08bf f770 013e d569 17bd
000001b0: 9f24 fdbe 24c3 b73d 8ea5 3bbe d88b 8b3e
000001c0: edf3 c6bd c8bd 8cbd d6f2 cab9 1bbb b43d
000001d0: 567b ae3e 6cf3 233e b66f b7be 9889 88be
000001e0: 3f0c e1bd 1dda 873b e29c cf3d a167 1bbe
000001f0: 8c2c fcbe 45c2 173e 894b 143e 6f41 e73d
00000200: b443 5cbe 2f0e 2bbe e7b9 21bd d63f ab3e
00000210: cb14 253f a674 dd3c 74f5 203d e411 d23d
00000220: d8d4 c9bc 7f02 a9bd 05d8 a2bd a23d cebe
00000230: aba7 30bc 8aae 18be dcb0 e6bb c344 6c3d
00000240: 8477 8fbe ad55 9e3e 5f6a 8a3e 7b81 54be
00000250: ba8d 0fbf dcfb fa3d 11be 32bd 323c 87bd
00000260: e136 22be 5446 99be e168 cfbe 1103 603e
00000270: 9527 0cbf 4767 39be 1d0a 83be fe53 893c
00000280: c747 cd3d e07b 163e 72c7 f53d fb8f 143e
00000290: 0462 debd e57b 93bd 46d9 9d3d 55cf f13b
000002a0: f51d 9dbb 0804 85be 3e3f 9dbe 84d9 a43e
000002b0: 6d86 0abe d0a0 81be 229f 42be 2bb2 bcbd
000002c0: ffaa 04be 99c4 a9be 989d 9c3e 6ae9 373e
000002d0: e119 b73d 7bd6 123e 07f8 12bf ec82 ec3d
000002e0: ec74 87be 405d 663d 9e5b 0ebe 9213 f23d
000002f0: 2f70 433e 944d bdbd 4bde 423e e806 493e
00000300: 8720 d03b 62d9 f9bd d57d abbe 73bb cfbb
00000310: a8e4 893d b6f3 2c3e e656 66be f2d2 4c3e
00000320: b6e7 dd3d 7c84 393e 4bf0 143e 9800 a43c
00000330: 8298 85be 5ceb 85be 3f25 813e 9676 473e
00000340: cc56 a2be f3cc d5ba 376f 5f3d dce6 d4bd
00000350: 1c51 433e 9f42 273e fdfb 203e 9581 043e
00000360: 29f2 4039 c078 dbbe ba9f 61be 08a0 c5bd
00000370: a93d 06bf 60f7 eebc 6ae2 2ebd b102 07be
00000380: 0162 e6bb b3e4 873d 8560 ca3e 250d 2b3e
00000390: b108 233e 42cf 1bbe 531c d83e 4db1 87be
000003a0: 74ff fabc 6fed 44be bb23 59be 0fee de3d
000003b0: 3013 2e3e 9962 1cbe ed0b 88be 7f8d 5ebd
000003c0: 4653 4a3c 02cb 853d 4b9f 9ebe 3f7e 313e
000003d0: 9950 f9be 52d4 ef3d 4504 0dbe 4a3e 6cbe
000003e0: 21a6 033e 45ad 2fbe 3da1 623d 324e e7be
000003f0: 2b56 8dbe 97a5 213e b289 6bbd b3b4 223e

phi.convs.2.lin_rel.bias f4 [16]
-0.18398765 -0.028914724 0.042044017 0.12834647 -0.14815821 0.23546937 -0.12523098 -0.13198365
0.072524786 -0.2962192 -0.25927722 0.13322303 0.091112666 0.049558315 -0.09632752 -0.26552308
00000000: 4267 3cbe 92de ecbc 5936 2c3d 426d 033e
00000010: c9b6 17be e21e 713e 8d3c 00be b926 07be
00000020: e087 943d 0baa 97be fcbf 84be 9e6b 083e
00000030: 4799 ba3d a9fd 4a3d 5d47 c5bd a4f2 87be

phi.convs.2.lin_root.weight f4 [16, 16]
-0.3400995 0.11869471 0.36064222 0.01764368 0.5662442 0.24154806 -0.3719669 -0.040259268
-0.2261902 0.0025243605 -0.20527004 -0.23877504 0.08406969 0.21021132 0.21035735 0.1526764
-0.17637499 0.18195146 0.21208307 -0.21224912 -0.3763519 0.048901062 -0.041819554 -0.1817183
-0.008563443 -0.35078776 0.08130027 -0.25267884 -0.72486585 -0.31423923 0.15600596 -0.14290406
0.12254072 0.15132616 0.012631845 0.09671526 0.19002491 0.14569794 -0.0057913004 0.1480255
-0.15691146 0.33294165 0.06566252 -0.046321694 -0.31137636 -0.28274006 0.067397326 0.09929677
-0.44088656 0.1984584 -0.110365406 -0.22765557 -0.50199294 -0.03424981 -0.07694329 0.11278571
0.20709689 0.022569956 0.1415609 -0.2256472 -0.67958224 -0.04814203 -0.15618679 0.04347488
-0.07457679 0.040197495 -0.17601648 0.1572845 0.14495786 0.015931064 0.2801767 -0.00867516
0.057337493 -0.23760703 -0.035597373 -0.29350486 -0.66489404 -0.2729785 0.19444315 -0.17197034
0.1584176 -0.18590981 0.35468894 0.11534447 0.039604235 0.28557858 -0.43581423 0.058329348
0.14602906 0.5015968 -0.047800116 -0.10229418 0.31346253 0.28314143 -0.07746306 0.037925456
-0.5271278 0.20650278 -0.14923066 0.14494285 -0.23539032 -0.23115402 0.009570248 -0.21061382
-0.012655351 0.00017277108 -0.25903866 -0.2096645 -0.66747165 -0.20686328 -0.284745 -0.07096599
-0.15369941 -0.15790173 0.1590416 0.1380289 0.26180255 0.020405276 -0.44688696 0.16410586
-0.1414955 0.23064995 -0.21020098 -0.21235262 -0.26866752 -0.07771585 0.047862902 0.23675567
0.003752398 -0.071393244 -0.12006399 0.016663427 0.60337836 -0.023687953 0.19382228 -0.12541917
0.24350345 -0.47959858 0.22592984 -0.03833395 0.2955126 0.15888362 -0.15760638 0.19068757
-0.49460146 -0.015815496 0.28958073 0.16992898 -0.66284686 0.22699699 -0.0050052027 -0.05103248
0.14450236 -0.38876295 -0.31176156 0.10286159 -0.72046053 -0.15673709 -0.23183313 0.21001989
-0.1546559 0.1440036 0.023624472 -0.057324085 -0.58983696 0.11115386 -0.12410742 -0.008165131
-0.118396476 -0.40167218 0.07124954 0.18751226 -0.38779792 -0.15483254 0.0064078914 0.093607575
0.18383169 -0.27685177 0.06385384 -0.2439151 0.47431666 0.243936 -0.23203796 0.18200946
0.024476536 0.35908547 0.04172223 0.22330047 0.12796384 -0.07609415 0.14975153 0.113052815
-0.084870234 -0.0890995 -0.2826312 -0.17165671 0.0007061902 0.20704688 -0.13585842 0.06350928
-0.050803 0.36520484 -0.08186224 -0.070995346 -0.49936488 0.21037562 0.057827618 -0.17569266
-0.24343362 -0.14359637 0.067046665 0.22565849 0.08991639 0.156321 -0.12306754 -0.10498646
0.1019712 -0.56719714 -0.17639418 -0.028907713 -0.26396328 0.078337125 -0.30526873 0.15999037
-0.33155683 -0.02192095 0.19893952 -0.18970159 0.3977594 -0.11549825 0.5810608 -0.026062068
-0.08255697 -0.16944788 0.05909689 -0.3347274 0.082478695 0.15538116 -0.18675786 -0.11959833
-0.0049293777 -0.10091348 -0.29160416 0.23573418 -0.2871984 -0.04248664 0.21701096 -0.14063542
0.14233929 0.15756817 0.027380122 -0.3034 -0.22907405 -0.25938326 -0.052829545 -0.022835152
00000000: 8621 aebe 3616 f33d 19a6 b83e 7b89 903c
00000010: 61f5 103f 6058 773e 7272 bebe e7e6 24bd
00000020: 679e 67be be6f 253b 4f32 52be 7281 74be
00000030: bb2c ac3d a341 573e eb67 573e 3457 1c3e
00000040: a59b 34be 7c51 3a3e 4e2c 593e d557 59be
00000050: 32b1 c0be 7b4c 483d fb4a 2bbd 5d14 3abe
00000060: af4d 0cbc 749a b3be c280 a63d 1f5f 81be
00000070: cf90 39bf f7e3 a0be 07c0 1f3e 7155 12be
00000080: a1f6 fa3d 3ff5 1a3e ccf5 4e3c a612 c63d
00000090: e495 423e d731 153e f3c4 bdbb ff93 173e
000000a0: 66ad 20be 5477 aa3e 127a 863d d1bb 3dbd
000000b0: b96c 9fbe 4ec3 90be 9c07 8a3d 1b5c cb3d
000000c0: e2bb e1be ae38 4b3e 4207 e2bd 8b1e 69be
000000d0: 9c82 00bf 8749 0cbd 7294 9dbd 32fc e63d
000000e0: 3511 543e a1e4 b83c 57f5 103e 0f10 67be
000000f0: 1af9 2dbf 9430 45bd 6eef 1fbe b712 323d
00000100: b7bb 98bd 21a6 243d aa3d 34be 300f 213e
00000110: d56f 143e dd81 823c 5273 8f3e 4222 0ebc
00000120: b8da 6a3d 424f 73be 8dce 11bd 4546 96be
00000130: 7f36 2abf d7c3 8bbe 1b1c 473e fe18 30be
00000140: 3938 223e 245f 3ebe ca99 b53e b939 ec3d
00000150: 0d38 223d 5b37 923e 0b23 dfbe c1ea 6e3d
00000160: a488 153e a668 003f 0eca 43bd 9c7f d1bd
00000170: 297e a03e eaf7 903e f4a4 9ebd b957 1b3d
00000180: d9f1 06bf 7775 533e eccf 18be e66b 143e
00000190: 290a 71be a4b3 6cbe 88cc 1c3c 26ab 57be
000001a0: 6458 4fbc e229 3539 b7a0 84be 4ab2 56be
000001b0: 6cdf 2abf f8d3 53be 19ca 91be 9e56 91bd
000001c0: 6163 1dbe feb0 21be cddb 223e 7357 0d3e
000001d0: fc0a 863e f728 a73c 5ece e4be 5e0b 283e
000001e0: 32e4 10be 802f 6c3e ed3e 57be f772 59be
000001f0: ca8e 89be 7d29 9fbd e40b 443d 1470 723e
00000200: cbea 753b 9f36 92bd 1ce4 f5bd bd81 883c
00000210: 0177 1a3f 3d0d c2bc 5979 463e e26d 00be
00000220: f858 793e f28d f5be 275a 673e 0f04 1dbd
00000230: 6d4d 973e 63b2 223e 9163 21be 9a43 433e
00000240: 673c fdbe 808f 81bc ed43 943e dd01 2e3e
00000250: 55b0 29bf e671 683e af02 a4bb 6f07 51bd
00000260: 6df8 133e f00b c7be 369f 9fbe 19a9 d23d
00000270: 1a70 38bf b07f 20be aa65 6dbe 740f 573e
00000280: 1e5e 1ebe ae75 133e 1c88 c13c a9cc 6abd
00000290: 8eff 16bf a3a4 e33d 082c febd 0bc7 05bc
000002a0: da79 f2bd faa7 cdbe 47eb 913d 3703 403e
000002b0: 738d c6be 6c8c 1ebe 4af9 d13b 54b5 bf3d
000002c0: 603e 3c3e 84bf 8dbe cdc5 823d e1c4 79be
000002d0: a2d9 f23e 5cca 793e 5c9b 6dbe b060 3a3e
000002e0: 0483 c83c 0dda b73e eee4 2a3d e1a8 643e
000002f0: f408 033e 40d7 9bbd 7758 193e 3c88 e73d
00000300: 72d0 adbd cc79 b6bd 09b5 90be c7c6 2fbe
00000310: 9f1f 393a 1904 543e 781e 0bbe 2711 823d
00000320: ce16 50bd 21fc ba3e 64a7 a7bd 0266 91bd
00000330: c1ac ffbe b56c 573e a7dc 6c3d c7e8 33be
00000340: aa46 79be ed0a 13be c34f 893d 0513 673e
00000350: 1626 b83d 9d12 203e d60a fcbd 2403 d7bd
00000360: 47d6 d03d d533 11bf ada0 34be decf ecbc
00000370: 3226 87be 376f a03d 2f4c 9cbe 84d4 233e
00000380: d1c1 a9be 9093 b3bc cdb6 4b3e 2241 42be
00000390: 1fa7 cb3e 598a ecbd 67c0 143f 1e80 d5bc
000003a0: a113 a9bd bf83 2dbe 950f 723d 6461 abbe
000003b0: 97ea a83d 3d1c 1f3e 743d 3fbe f8ef f4bd
000003c0: 9e86 a1bb baab cebd 244d 95be 4d64 713e
000003d0: ab0b 93be 7906 2ebd 1f38 5e3e bb02 10be
000003e0: 64c1 113e 8d59 213e 474c e03c 3f57 9bbe
000003f0: 6392 6abe e2cd 84be cb63 58bd c910 bbbc

phi.norm.weight f4 [16]
0.966914 0.9568623 0.98450047 1.0214758 1.103165 1.0690864 1.2169625 0.97290576
1.0237324 1.4066498 1.3086648 1.0595285 1.0364382 0.9336483 1.0624902 0.9827879
00000000: ad87 773f edf4 743f 3908 7c3f b8bf 823f
00000010: 8334 8d3f d3d7 883f 6dc5 9b3f 5a10 793f
00000020: aa09 833f 1a0d b43f 5482 a73f a19e 873f
00000030: 02aa 843f 9303 6f3f aeff 873f fd97 7b3f

phi.norm.bias f4 [16]
-0.03992978 -0.05874953 -0.09985983 0.032194484 -0.02062259 0.03164412 0.047484566 -0.010884585
-0.06492377 0.20494437 0.10132193 -0.003758824 -0.02325151 -0.072282135 0.03264296 -0.06447858
00000000: 698d 23bd 59a3 70bd 5083 ccbd 5dde 033d
00000010: b5f0 a8bc 449d 013d 2d7f 423d 4255 32bc
00000020: c1f6 84bd f0dc 513e df81 cf3d 9a56 76bb
00000030: f379 bebc a808 94bd a0b4 053d 590d 84bd

phi.fc.weight f4 [32, 17]
0.17427242 -0.17397837 0.25457948 0.15413657 0.1318366 0.18863095 -0.18831225 0.0044098655
0.09373028 0.17619646 0.50092524 0.13187538 0.0817469 0.07937074 -0.30689824 0.18430495
-0.08800918 0.04975931 0.055759154 -0.074882336 0.06752306 -0.27738503 0.031393435 -0.00091473805
-0.16689155 -0.034713406 -0.4620742 -0.31369027 0.074891545 0.06817883 -0.023291003 -0.090764016
-0.096829474 0.36243623 -0.29795733 0.012821268 -0.18998232 -0.24056035 -0.08362311 -0.29048264
0.13144954 -0.1534186 -0.0055526537 -0.19383647 -0.16350485 -0.2246298 0.14979967 0.38626704
0.14112408 -0.149543 0.23734115 -0.2341205 0.21583116 -0.18718596 -0.39451218 -0.20234974
-0.3476665 0.035728756 -0.13296989 -0.17990488 0.23944734 -0.2408799 0.020699205 -0.093968034
0.24181505 0.016995586 0.11262258 0.11337166 0.095624514 -0.4548282 -0.15258169 -0.78542125
0.13621847 -0.052126653 -0.06628866 0.060136124 0.11321103 -0.6724608 -0.7172039 -0.15712899
-0.1398868 -0.11026441 0.2662812 -0.100273736 -0.007222509 -0.050698705 -0.15272853 -0.0032458715
-0.21352266 0.19240041 -0.17748183 0.34981042 0.08571675 0.06573716 -0.06793864 0.110359035
0.21215926 -0.14958188 -0.4595119 0.39530045 0.0018167279 -0.28066126 -0.04544097 0.25578827
-0.012594965 0.057738367 -0.16834691 0.07316558 0.20224036 0.22775176 -0.027407944 0.4460368
0.1405868 0.13688119 0.21771537 -0.023588838 -0.1389736 0.20856851 -0.40478992 -0.11436774
-0.14616928 -0.3378418 -0.26631385 -0.33800837 0.04209578 -0.14777596 0.054784857 -0.19785555
-0.10449669 -0.13351987 0.18641607 0.17019343 -0.10297477 -0.48160735 0.024448806 0.38677335
-0.10756363 -0.04622916 -0.012297258 0.30897415 0.24991587 0.23497224 0.22004874 0.040307842
0.39580166 -0.1165335 0.14303365 -0.035433125 -0.1574869 -0.1898535 0.04029849 0.04037869
-0.22124423 0.077119805 0.09565398 -0.08581563 0.26212117 -0.13082647 0.07572811 -0.10200433
-0.11698209 0.09326059 0.35095128 0.41820115 0.1819936 0.26129267 -0.24066415 0.12541632
0.24065001 -0.3190838 -0.14192425 -0.1562593 0.17783684 -0.028248712 -0.16177672 0.3146917
0.05774864 0.06285442 -0.12498754 0.10517206 -0.020169716 0.1817149 0.037468683 -0.18454641
0.24238728 -0.0021286067 -0.09849791 0.17696966 -0.27401283 0.30904555 0.20147632 -0.033961844
0.24664742 0.0566126 -0.20798501 0.21737805 -0.10679133 0.42008716 -0.082842536 0.27902198
-0.04294397 -0.13005565 0.13514976 -0.07032033 -0.14975962 0.18333161 0.05516353 -0.15218638
0.21760745 -0.09617298 -0.13795467 -0.1803141 0.09299401 -0.09129021 0.0009744963 -0.29666886
-0.039882947 0.015342208 -0.034415077 0.1482433 0.1468584 -0.2634082 0.021751508 -0.11707091
-0.13793783 0.3948693 -0.38189393 0.12954982 0.086145625 -0.04236339 0.011876127 -0.036296066
-0.28512025 0.09751293 0.107224174 -0.110297725 0.2331771 -0.0037274682 0.08522586 -0.048151996
0.11696483 -0.06677968 -0.101321585 0.08977505 -0.24706206 0.003054361 0.068628795 -0.40099102
-0.30182368 0.18594941 0.02478624 0.19847874 -0.07061054 -0.15419003 0.3908411 -0.17209738
00000000: 7874 323e 6327 32be 3e58 823e fad5 1d3e
00000010: 2c00 073e 7928 413e edd4 40be a280 903b
00000020: a9f5 bf3d d86c 343e a33c 003f 570a 073e
00000030: eb6a a73d 208d a23d c421 9dbe 70ba 3c3e
00000040: 283e b4bd 6bd0 4b3d b663 643d e95b 99bd
00000050: 8849 8a3d 6905 8ebe 6796 003d 08cb 6fba
00000060: 9ee5 2abe a52f 0ebd fd94 ecbe 039c a0be
00000070: bd60 993d 58a1 8b3d c6cc bebc 7ce2 b9bd
00000080: 884e c6bd 3e91 b93e dd8d 98be 4c10 523c
00000090: ba8a 42be 7455 76be 9842 abbd 24ba 94be
000000a0: b59a 063e c419 1dbe 09f3 b5bb 117d 46be
000000b0: d16d 27be 5b05 66be 1665 193e cbc4 c53e
000000c0: d582 103e cd21 19be 8f09 733e 49bd 6fbe
000000d0: d802 5d3e adad 3fbe 80fd c9be c534 4fbe
000000e0: 5801 b2be 5158 123d 4229 08be fc38 38be
000000f0: af31 753e 38a9 76be 6191 a93c 5072 c0bd
00000100: 5d9e 773e 543a 8b3c aba6 e63d 672f e83d
00000110: c9d6 c33d 3edf e8be 603e 1cbe 5e11 49bf
00000120: db7c 0b3e c282 55bd 59c2 87bd 4c51 763d
00000130: 2fdb e73d 6426 2cbf ad9a 37bf 6ce6 20be
00000140: 7c3e 0fbe 4fd2 e1bd 0256 883e 515c cdbd
00000150: ccaa ecbb 72a9 4fbd de64 1cbe b0b8 54bb
00000160: afa5 5abe 9d04 453e ccbd 35be 5a1a b33e
00000170: 438c af3d 34a1 863d 6a23 8bbd eb03 e23d
00000180: 4740 593e fe2b 19be 2545 ebbe d264 ca3e
00000190: 461f ee3a d5b2 8fbe 5020 3abd aef6 823e
000001a0: 1d5b 4ebc 117f 6c3d 2263 2cbe d6d7 953d
000001b0: 1918 4f3e c237 693e a086 e0bc ef5e e43e
000001c0: fcf5 0f3e 952a 0c3e c7f0 5e3e 613d c1bc
000001d0: 184f 0ebe fc92 553e a040 cfbe a239 eabd
000001e0: 66ad 15be 9af9 acbe 4a5a 88be 6f0f adbe
000001f0: a06c 2c3d 9552 17be 1666 603d a59a 4abe
00000200: 5c02 d6bd 6fb9 08be dbe3 3e3e 3047 2e3e
00000210: 70e4 d2bd 3d95 f6be dd48 c83c 2807 c63e
00000220: 524a dcbd ca5a 3dbd 707a 49bc dc31 9e3e
00000230: f2e9 7f3e 909c 703e 7554 613e d619 253d
00000240: 84a6 ca3e 1ea9 eebd 6a77 123e 5322 11bd
00000250: 3f44 21be f568 42be 0810 253d 2064 253d
00000260: d98d 62be fdf0 9d3d 3ce6 c33d 1bc0 afbd
00000270: bf34 863e 60f7 05be 5717 9b3d a5e7 d0bd
00000280: 4e94 efbd 69ff be3d e3af b33e 761e d63e
00000290: 885c 3a3e 27c8 853e aa70 76be 236d 003e
000002a0: f56c 763e f45e a3be 9754 11be 7002 20be
000002b0: dc1a 363e d869 e7bc cca8 25be 451f a13e
000002c0: d789 6c3d d1b9 803d 78f9 ffbd 7364 d73d
000002d0: f63a a5bc 7913 3a3e c378 193d bcf9 3cbe
000002e0: 5f34 783e 1880 0bbb 46b9 c9bd 8937 353e
000002f0: 694b 8cbe 383b 9e3e cf4f 4e3e 931b 0bbd
00000300: 2491 7c3e 9de2 673d 06fa 54be 5a98 5e3e
00000310: 6ab5 dabd aa15 d73e 59a9 a9bd f8db 8e3e
00000320: 04e6 2fbd 4f2d 05be b364 0a3e 1b04 90bd
00000330: 965a 19be 48bb 3b3e 27f3 613d bfd6 1bbe
00000340: 7dd4 5e3e 57f6 c4bd fd43 0dbe 42a4 38be
00000350: a573 be3d 5df6 babd 5775 7f3a fbe4 97be
00000360: 4d5c 23bd e25d 7b3c d3f6 0cbd 17cd 173e
00000370: 0c62 163e 71dd 86be 3830 b23c e0c2 efbd
00000380: 933f 0dbe 4f2c ca3e 9a87 c3be b5a8 043e
00000390: 1e6d b03d 3c85 2dbd 1694 423c 2fab 14bd
000003a0: 48fb 91be dcb4 c73d 5998 db3d c6e3 e1bd
000003b0: fac5 6e3e 8a48 74bb e58a ae3d 073b 45bd
000003c0: 428b ef3d c9c3 88bd b181 cfbd fbdb b73d
000003d0: d6fd 7cbe ad2b 483b 418d 8c3d b24e cdbe
000003e0: a288 9abe 8669 3e3e 830c cb3c 033e 4b3e
000003f0: 429c 90bd fee3 1dbe 531c c83e 4c3a 30be

phi.fc.bias f4 [32]
-0.19120091 0.0021063297 0.17005217 0.076892704 0.034901507 0.01445796 -0.11749606 -0.08567664
0.25836867 -0.051702052 0.09978416 -0.14269607 -0.107622005 -0.056268863 -0.18115118 -0.05358299
-0.2521645 -0.14532462 0.18428661 0.28047216 0.09764618 -0.203398 -0.19285627 -0.1018027
0.0126143675 0.23839723 -0.19472758 0.11157928 0.06745427 -0.25148338 0.22331128 0.1826879
00000000: 2cca 43be 590a 0a3b 2822 2e3e ec79 9d3d
00000010: e2f4 0e3d 14e1 6c3c c6a1 f0bd 3c77 afbd
00000020: e648 843e 88c5 53bd a35b cc3d eb1e 12be
00000030: ed68 dcbd 2e7a 66bd b27f 39be d679 5bbd
00000040: b51b 81be facf 14be a1b5 3c3e 0c9a 8f3e
00000050: b8fa c73d 9147 50be 1d7c 45be ef7d d0bd
00000060: 7eac 4e3c 671e 743e ab66 47be ad83 e43d
00000070: 7725 8a3d 6ec2 80be b6ab 643e 8912 3b3e

phi_salt.convs.0.lin_rel.weight f4 [16, 13]
-0.08806685 0.54706365 0.32810637 0.09442417 0.5315064 -0.3266012 0.2495849 0.1820425
-0.024293803 0.3041198 0.6102694 0.10459996 -0.19089378 0.20240244 -1.1475893 0.012660672
-0.60864234 0.14410774 0.4814227 0.19277571 -0.03656517 0.055479996 -0.2506133 -0.50999224
-0.00055112975 0.06414264 -0.6783242 0.0023356262 -0.055730864 -0.3972121 -0.073806494 0.45392126
-0.52909416 0.22818209 0.17269354 -0.53245527 0.80775887 -0.20984577 -0.21833864 0.44955304
0.17332305 0.16730288 0.69181156 -0.1953224 -0.1784363 0.4459047 0.121186204 0.05159803
0.2894814 -0.13504003 0.10699174 0.11917012 0.12764871 1.0187342 0.17793879 0.5327097
0.21008386 -0.1684751 0.2111363 -0.11121218 0.120651394 0.08531255 0.25754637 -0.2303677
0.015147667 0.14298339 1.2244781 0.103539325 0.3188654 -0.08618222 0.11669642 0.23769352
-0.18555592 0.06176904 -0.1104595 1.0168837 0.18748567 0.1672665 0.23867801 1.3779716
0.5568418 0.36173975 -0.01628463 -0.020701617 0.23336908 -0.025667407 -0.026231842 0.31347182
1.1466196 0.2819669 0.09736888 0.3306531 -1.2997152 0.11171637 0.47044647 -0.10789582
0.26071092 0.24911867 -0.026668336 0.15441512 0.15026549 -0.32018846 -0.2869859 -0.07073905
-0.218893 1.5145309 0.031238077 -0.5206496 -0.064189814 0.12680383 -0.45773512 0.19567631
0.2258458 -0.25494418 0.482592 0.035888966 0.04447315 0.22166097 1.5063103 0.39315063
0.030318107 0.22325516 -0.21059357 0.33174816 -0.060370926 0.04974378 -0.15251262 0.37361526
0.19777755 0.12894133 -0.0715946 0.094279386 0.3377628 0.62202364 0.12502258 -0.5592584
0.3588798 0.15010534 0.15710446 0.120363995 0.46578604 -0.16843815 0.17744115 0.3014543
0.793328 -0.24767004 -0.57301164 -0.06581421 -0.02437605 -0.43371004 -0.08240698 0.16815932
-0.34829766 0.51374996 -0.29201934 0.09984867 0.1978445 1.204141 0.16479951 -0.052413076
0.18466784 -0.109801106 0.18258196 0.35870633 -0.1145574 -0.04972179 0.9879511 0.15155908
-0.10828502 0.37400815 1.0568705 -0.5090139 -0.24400024 -0.011585144 -0.23795569 -0.40822583
0.07524207 0.13664176 0.02567666 0.44552112 -0.12925476 0.2257242 -0.23493996 -1.3735651
0.17989713 0.2978565 -0.34755012 0.16510557 0.4689923 0.024429912 0.07771469 0.36732975
-0.54019785 0.20318766 0.11152593 0.24421917 1.4333589 0.21595432 0.32824287 0.028518004
-0.4613541 0.4202769 -0.105989166 -0.07748119 -0.18671958 0.37775034 0.16666637 0.2402181
00000000: 655c b4bd 5d0c 0c3f 8ffd a73e 7661 c13d
00000010: ce10 083f 4638 a7be 2f93 7f3e 5969 3a3e
00000020: cc03 c7bc 97b5 9b3e 9e3a 1c3f 8138 d63d
00000030: a979 43be 9642 4f3e 35e4 92bf b56e 4f3c
00000040: fccf 1bbf fb90 133e 097d f63e ff66 453e
00000050: 5cc5 15bd fe3e 633d 6350 80be da8e 02bf
00000060: b179 10ba 375d 833d a8a6 2dbf 4e11 193b
00000070: 0c46 64bd 625f cbbe dc27 97bd 5e68 e83e
00000080: b772 07bf 91a8 693e 93d6 303e fd4e 08bf
00000090: 49c9 4e3f cfe1 56be 2a94 5fbe d12b e63e
000000a0: 997b 313e 7251 2b3e 901a 313f 9802 48be
000000b0: 01b8 36be 9f4d e43e 7930 f83d 7558 533d
000000c0: e836 943e ef47 0abe 7c1e db3d 770f f43d
000000d0: 58b6 023e e265 823f 9635 363e aa5f 083f
000000e0: 3920 573e bd84 2cbe 1d34 583e 36c3 e3bd
000000f0: 1418 f73d 59b8 ae3d 1edd 833e 83e5 6bbe
00000100: ec2d 783c 3d6a 123e b3bb 9c3f 6d0c d43d
00000110: 5342 a33e 4e80 b0bd 88fe ee3d ee65 733e
00000120: 5f02 3ebe 8801 7d3d 9738 e2bd 3f29 823f
00000130: 3efc 3f3e e947 2b3e 0268 743e 6061 b03f
00000140: 2f8d 0e3f f435 b93e 5867 85bc 7096 a9bc
00000150: 4ef8 6e3e 7444 d2bc 29e4 d6bc 617f a03e
00000160: 6ec4 923f f75d 903e 5669 c73d 5d4b a93e
00000170: 115d a6bf 8dcb e43d 5cde f03e 7cf8 dcbd
00000180: e77b 853e f718 7f3e 8e77 dabc ff1e 1e3e
00000190: 32df 193e beef a3be d1ef 92be a3df 90bd
000001a0: 7d25 60be 26dc c13f ffe6 ff3c 4b49 05bf
000001b0: f375 83bd ddd8 013e 425c eabe 5f5f 483e
000001c0: 1f44 673e 0b88 82be 4c16 f73e 4f00 133d
000001d0: 7a29 363d 18fb 623e c7ce c03f 0a4b c93e
000001e0: ae5d f83c 009d 643e d7a5 57be e5da a93e
000001f0: 8147 77bd 22c0 4b3d 452c 1cbe 804a bf3e
00000200: 3386 4a3e 3209 043e 31a0 92bd 8d15 c13d
00000210: 3fef ac3e f13c 1f3f eb05 003e 8f2b 0fbf
00000220: 18bf b73e 37b5 193e fedf 203e 6681 f63d
00000230: 827b ee3e 0d7b 2cbe 22b3 353e 3858 9a3e
00000240: 8b17 4b3f 379d 7dbe e4b0 12bf 9ac9 86bd
00000250: 48b0 c7bc 3e0f debe fec4 a8bd f531 2c3e
00000260: 1254 b2be 1e85 033f 8f83 95be 767d cc3d
00000270: c097 4a3e 4b21 9a3f 34c1 283e 18af 56bd
00000280: 9119 3d3e 67df e0bd c4f6 3a3e 5ba8 b73e
00000290: 129d eabd 13a9 4bbd 5dea 7c3f 4e32 1b3e
000002a0: 89c4 ddbd ff7d bf3e 8847 873f bc4e 02bf
000002b0: 33db 79be 9ecf 3dbc a8aa 73be fa02 d1be
000002c0: 8418 9a3d d1eb 0b3e dc57 d23c 581b e43e
000002d0: 5c5b 04be 3f24 673e 1a94 70be fbd0 afbf
000002e0: f436 383e a680 983e 17f2 b1be 6f11 293e
000002f0: c21f f03e 3d21 c83c e128 9f3d a512 bc3e
00000300: 684a 0abf 6d10 503e b567 e43d 9714 7a3e
00000310: 4e78 b73f 2123 5d3e 730f a83e 979e e93c
00000320: 9b36 ecbe 892e d73e d910 d9bd 75ae 9ebd
00000330: 6b33 3fbe 7e68 c13e 97aa 2a3e bcfb 753e

phi_salt.convs.0.lin_rel.bias f4 [16]
-0.28165653 0.09089868 -0.2977781 0.1567299 0.1083972 -0.094140366 -0.15087664 0.16176525
-0.29638395 -0.0719018 -0.19331253 0.21727218 0.062229834 -0.19729428 0.2835121 0.26099902
00000000: 4935 90be 1629 ba3d 5f76 98be ce7d 203e
00000010: 5aff dd3d aacc c0bd 687f 1abe caa5 253e
00000020: a3bf 97be 4041 93bd b8f3 45be 997c 5e3e
00000030: b6e4 7e3d 8307 4abe 7f28 913e aaa1 853e
